Model/sentiment_mlp_model.pth (torch, 430272 bytes, 6 tensors)

fc1.weight f4 [128, 768]
000000 68 08 8c 3d 1c fe 96 3c 1e 41 c1 ba 01 02 cb 3c
       0.06837541 0.018431716 -0.0014744138 0.024781229
000010 bb 65 af bc b0 1d fd 3c 89 20 03 3d cf 12 47 3c
       -0.021410814 0.030897945 0.03201345 0.01215048
000020 35 e8 8b 3d 63 4d 4c bc 28 99 9b 3d 59 0f 70 bc
       0.06831399 -0.012469622 0.075975716 -0.014652097
000030 a4 8f a6 bb 11 8e 61 3c 38 a8 ff bc 3a ab eb bc
       -0.0050830413 0.013766781 -0.031208143 -0.02876817
000040 41 0d e7 3c 40 ca 7b 3c b4 82 62 b9 6a d3 20 3d
       0.028204562 0.015368044 -0.0002160173 0.03926412
000050 54 04 1f 3d ca e0 25 3c 15 60 14 bc 4a a7 ac 3c
       0.038822487 0.010124395 -0.009056111 0.021075863
000060 12 c2 2d 3d 6f 0c e1 3c a8 c1 57 3c 67 42 8f bd
       0.042421408 0.02747175 0.01316873 -0.06995087
000070 7a f0 50 3b c2 e3 c8 3c e8 ef ed 3c 4c 8f d8 3b
       0.0031881616 0.024522666 0.02904506 0.006608879
000080 ba 24 ce 3c 16 72 48 3d a8 6f 19 bd ee 98 ad bc
       0.025163997 0.048936926 -0.03746 -0.021191087
000090 f2 1e e1 bb ac ec 04 3d 18 32 16 3d 76 80 ef 3c
       -0.006870144 0.03245227 0.036668867 0.02923606
0000a0 21 b1 8c bc cc 16 bb bc 9d d0 0e bd 0c b6 9b 3d
       -0.017174305 -0.022838019 -0.034866918 0.07603082
0000b0 b9 bb 92 3c 5f 95 19 bd 13 32 72 3d 7e bd b0 3c
       0.017911779 -0.037495967 0.059129786 0.021574732
0000c0 31 c5 8e 3c 4a 45 7b bc 97 db 39 3b b6 f0 2d bd
       0.017428013 -0.015336344 0.0028359646 -0.042465888
0000d0 1a 08 29 bc e0 db e6 bc 23 ba 28 bd 75 12 dc bc
       -0.010316873 -0.028181016 -0.04119314 -0.02686427
0000e0 9f 8d b0 3c 63 7d 4c bc d0 f8 e6 3c b3 83 6d 3d
       0.021551905 -0.012481066 0.028194815 0.057986926
0000f0 99 2a ca 3b a8 40 7b 3d 12 06 86 3d 06 2b 37 bd
       0.006169629 0.061340958 0.065441266 -0.044718765
000100 59 6e 2a bd c1 96 80 3c 8e 4e 17 3d 83 6c b8 3c
       -0.041609142 0.015696885 0.03694015 0.02251268
000110 f4 98 fc bc 34 26 45 bd 72 fd 75 bd 26 6e 98 bc
       -0.030834652 -0.048132136 -0.060056157 -0.01860721
000120 ce 47 be 3c 85 77 96 bd 45 45 1e 3c 84 59 3e bd
       0.023227599 -0.07347015 0.00966007 -0.046472088
000130 e5 c9 3d bd 0e 3a cb 3c 1a 73 f2 3c f6 73 16 bc
       -0.04633512 0.024807956 0.0295959 -0.009182921
000140 00 46 59 3c be 83 27 3d 24 e4 46 3c e2 4f 2f bd
       0.013261318 0.040897124 0.012139354 -0.04280079
000150 9d ae 12 bd 29 e6 7a bc 52 a1 48 3d c1 2d ac 3b
       -0.035811055 -0.0153136635 0.048981972 0.0052544777
000160 79 4a 88 bc ba 8f a0 38 e3 d4 57 3c 40 3f 19 bc
       -0.016637074 7.656166e-05 0.013173315 -0.009353459
000170 ce 2e 7b 3d 0d 9f 01 3c 52 f8 eb bc 70 52 0d bd
       0.061323933 0.007911456 -0.028804932 -0.034502447
000180 05 35 81 bc 08 21 0e 3d ca 03 ab 3b 5b 7a 22 3d
       -0.015772352 0.03469947 0.0052189576 0.03966747
000190 7b b4 1f bd ac 72 50 bd d5 9e 34 bd 9f 61 01 3d
       -0.03899048 -0.05089061 -0.044096787 0.03158724
0001a0 6b dc 40 3d a1 79 60 bc 96 47 5a bb ce ae 10 3d
       0.047085207 -0.013700874 -0.0033306829 0.035322957
0001b0 fd 2f d0 bb e5 c8 18 bb d1 29 d7 3c 7a d4 fc ba
       -0.006353377 -0.0023313102 0.026265057 -0.0019289397
0001c0 74 e1 90 bc 68 6a 52 bd 79 a3 ea bc 2f af d4 3c
       -0.01768563 -0.05137101 -0.028642403 0.02596244
0001d0 77 ea 5d 3d 86 04 88 bd 93 52 04 ba 7e 63 ff bc
       0.05417868 -0.06641488 -0.0005047705 -0.031175371
0001e0 d6 34 2b bc 4b 64 a9 bc d8 a6 3f 3a 51 e0 9a bc
       -0.010449609 -0.020677706 0.00073109334 -0.01890579
0001f0 cc b1 9b bc 49 63 b6 3c bd ba 37 bc f4 a6 0b 3d
       -0.019005679 0.02226414 -0.0112139555 0.034094766
000200 53 9f 83 bc 67 f9 da 3c 09 29 e1 bc ad 5a 22 3d
       -0.016067183 0.026730252 -0.027485387 0.039637256
000210 aa 50 1c bd 4e e3 58 bc a4 97 63 bd a5 1c 26 3c
       -0.038162865 -0.013237787 -0.055564538 0.010138665
000220 94 c1 85 3d 18 30 6b 3d a2 e6 6a bc fd 2a 04 3d
       0.06531063 0.057418913 -0.014337214 0.03226756
000230 15 cc 68 3d e0 07 6a 3c 28 4a 60 bd 69 ad aa 3b
       0.056835253 0.014284104 -0.05475822 0.0052086604
000240 ab da d2 3b 27 62 48 bc e2 8a cb 3a c4 10 57 3c
       0.0064347587 -0.012230433 0.0015529061 0.013126556
000250 12 dd ea 3c 74 be cd 3b d2 90 4f bd 4a fe 24 3d
       0.028669868 0.0062788073 -0.05067522 0.04028157
000260 b7 55 09 bd c0 f4 43 bd d3 ed d2 bc 9b 1d b9 bc
       -0.03352901 -0.047840834 -0.025748169 -0.022597125
000270 f1 8e 3b b9 aa d1 33 bd 16 86 3f 3c 21 a0 ec 3b
       -0.0001788696 -0.043901123 0.011689683 0.0072212373
000280 d5 fc 83 3c 22 d2 c6 bb 63 b1 90 bc 55 a0 3b 3d
       0.01611177 -0.0060675303 -0.01766271 0.0458072
000290 2d c5 3a bb 2b aa 52 3d b2 63 7c 3b 2a 28 06 3d
       -0.0028498874 0.051431816 0.0038511571 0.032753147
0002a0 da a4 18 3d ed 80 a6 3c e6 92 04 3d 50 ac 2a 3c
       0.03726659 0.020325148 0.032366656 0.010417059
0002b0 35 46 43 bc c1 f0 ac 3c 8b de 76 bc 8d 1a 6e 3d
       -0.011918594 0.021110894 -0.015067707 0.05813079
0002c0 0c bc 0f bc fd 81 66 bc 8d 73 6e bc e8 ce 9c 3d
       -0.008772861 -0.014069078 -0.014553917 0.07656652
0002d0 4f 5b 12 bd b7 f7 b8 3c 58 dd fd bc c3 e7 1c bd
       -0.03573161 0.022579057 -0.030989334 -0.038306963
0002e0 7c c6 93 bd 54 72 3c bc 1a a3 e9 3c 46 28 1c 3d
       -0.07215592 -0.011501867 0.028520156 0.038124345
0002f0 a4 c5 10 bc d9 98 16 3d 5f 40 21 3b f0 17 27 3c
       -0.008836184 0.03676686 0.0024605019 0.010198578
000300 79 a4 7e 3c a9 ce e6 3c 4b 9c 4d 3d c7 47 40 bb
       0.015542143 0.028174715 0.05019788 -0.0029339658
000310 7b 47 a0 3c a6 e4 73 bd a4 9a c2 3c f1 ff 0e 3c
       0.019565335 -0.059544228 0.023755379 0.008728013
000320 8c 49 dd bc 04 17 c1 bc b1 13 f0 bb 29 9b bc ba
       -0.027012609 -0.023570545 -0.007326566 -0.0014389503
000330 85 fc bc bc 86 b2 b5 bb 7c ef 4f bd 41 d4 7a 3c
       -0.02306963 -0.0055449633 -0.0507655 0.015309394
000340 1c c6 8c 3c c3 dc 28 3d 0f ae e4 bc 80 c7 6a 3d
       0.01718431 0.04122616 -0.027915029 0.057319164
000350 56 d2 e9 bb 79 29 2b bc 3f 73 34 3d d1 29 14 3d
       -0.0071356697 -0.0104469 0.04405522 0.03617269
000360 6e c9 1a 3d 00 85 8c bc f2 8e 22 3d 9c f0 93 bd
       0.037789755 -0.017153263 0.039687105 -0.07223627
000370 5f 6a e0 3a 47 1a 41 bd ae eb a0 bc aa 17 09 bd
       0.0017121545 -0.0471442 -0.01964363 -0.033469833
000380 04 9d 02 bd 25 51 ad bc 96 11 7d bc d0 14 c0 3c
       -0.031888023 -0.021156857 -0.015446087 0.023447424
000390 b1 f5 5d 3c b8 84 17 bc 07 e4 f6 3c f1 35 9e ba
       0.013547347 -0.009247951 0.030138029 -0.0012070519
0003a0 0e e6 2f 3d 72 1b 5b bb 11 47 e2 38 00 0b 95 bc
       0.042944007 -0.0033433107 0.00010789757 -0.018193722
0003b0 dd 50 3a bc e2 3b bb 3c bf f4 1b bd bc 43 b8 bd
       -0.011371818 0.022855703 -0.038075205 -0.08997294
0003c0 6a d5 e8 3c 51 95 6e bc a1 22 37 3c da a5 af 3c
       0.028422076 -0.014561967 0.01117769 0.021441389
0003d0 0e 3a f6 bb 1d 81 b7 3c 8b f5 7f 3d 3c ee 1e 3b
       -0.007514245 0.022400433 0.062490027 0.0024250885
0003e0 07 c9 75 bd 9c e7 18 3d 73 03 ba bc d7 ed 67 3c
       -0.060006168 0.037330255 -0.022706723 0.0141558265
0003f0 6c 73 03 3d fc 65 c0 bc b6 e1 7f bd d2 97 71 bc
       0.032092497 -0.02348613 -0.062471114 -0.014745669

fc1.bias f4 [128]
000000 2f fa 6b bc f4 90 16 3d 3f 8d 1c 3c 25 2d 03 bc
       -0.01440291 0.03675933 0.00955516 -0.008006369
000010 03 6f ca bc 89 83 f9 bb 4b ca 76 3c 6c b2 0a bc
       -0.024711138 -0.007614557 0.015062879 -0.008465391
000020 c0 90 bd 3c 4a c7 5e 3c d1 ce db 3c 2a a2 99 3c
       0.023140311 0.013597319 0.026832016 0.018754084
000030 c8 50 2c bc c1 ce 2a 3d 45 5a c4 3c 2d dd 92 3c
       -0.010517307 0.041701082 0.023968825 0.01792773
000040 ea 72 7c bb cd 0d 9c 3c b8 7a d3 bc 9a c0 2b bd
       -0.0038520643 0.01904955 -0.025815353 -0.041931726
000050 59 00 8c 3d c4 fc d6 bc 19 d4 c0 bb ba 62 07 bb
       0.06836004 -0.026243575 -0.005884659 -0.002065821
000060 9f cb 0a 3d fb 2d 3d 3d 70 25 36 3c c4 5a ff 3b
       0.033885594 0.04618643 0.011117324 0.0077928025
000070 da ad 50 ba 08 75 1c 3c d6 3c 9c bb 7d dd 40 3d
       -0.0007960476 0.009549387 -0.0047679944 0.047086228
000080 8c ff 9e 3c 5f 51 10 39 6b d8 e5 bc 6f 88 a4 bc
       0.019408964 0.00013763223 -0.028057298 -0.020084588
000090 f0 77 00 3d ff 86 2f bc 32 bc 1d bc c2 ba 02 bb
       0.03136438 -0.010713338 -0.009627389 -0.0019947742
0000a0 48 92 60 3c 23 cf 0f 3d 66 1d 8a bc 16 25 f6 3c
       0.013706751 0.03510965 -0.016859721 0.03004698
0000b0 fc a6 3a 3d 00 d4 80 3b 10 9f ec 3c 27 86 2a bd
       0.045569405 0.0039315224 0.02888444 -0.041631844
0000c0 f2 1b b1 3c 92 bc 90 ba b8 d1 0e 3d 65 0a b9 3b
       0.02161977 -0.0011042526 0.034867972 0.005646991
0000d0 d2 61 30 3d 61 36 45 3c c7 4d b1 3b b3 a6 52 3c
       0.04306204 0.012036891 0.005410883 0.012857127
0000e0 f1 4b 94 ba 52 f5 49 3b d8 11 96 bb 1d 30 da bc
       -0.0011314136 0.0030816388 -0.004579764 -0.02663427
0000f0 8b 5e 57 3c 65 c5 ef 3c 53 ef 12 3d 34 ba f1 bb
       0.013145099 0.02926893 0.03587277 -0.0073769335
000100 a8 1d fa bc 46 6b a2 bc 3d 9b 54 bc 47 6b 06 3d
       -0.03053172 -0.019826543 -0.012976465 0.03281715
000110 93 c9 8c bc 75 dd a2 3c b1 bc b3 3c a2 78 3d bc
       -0.017185962 0.01988099 0.021940561 -0.011564406
000120 43 22 2a bd 2f cb 7a 3a 30 7d d0 3c 55 24 37 3c
       -0.04153658 0.000956702 0.025450319 0.011178096
000130 25 ab 04 bd 93 28 07 3d c0 2b c1 36 11 4b 5b bc
       -0.03238978 0.03299768 5.7569414e-06 -0.013384596
000140 2c f2 9a 3a 8d 2d 9a bb 5c 9f ca bc dd a5 58 3d
       0.001182144 -0.004705137 -0.024734192 0.052892555
000150 74 eb c3 bc d0 79 82 3c b4 66 05 3d 1b b1 1a 3d
       -0.023915984 0.015927225 0.03256865 0.037766557
000160 b0 50 89 ba ad 94 80 bc 1b 7c 33 3d 55 e2 09 bd
       -0.0010476317 -0.015695894 0.043819528 -0.033663113
000170 a9 8d fd bb 25 c3 5f 3c 29 8a 92 bc 3a 93 d1 3c
       -0.0077378345 0.013657366 -0.017888146 0.025582898
000180 ef 8d 9d 3c ac 09 01 bd 43 ef 2e 3d 69 36 ba 3c
       0.019232718 -0.031503364 0.042708647 0.022731023
000190 5e a5 b5 3c a5 83 35 3d b8 2e e3 3c 14 cb 67 bc
       0.02217358 0.044315 0.027732238 -0.014147539
0001a0 9d ba 8d 3c e8 98 d7 3c f0 b7 55 3c 13 6b 91 bc
       0.017300898 0.026318029 0.013044342 -0.017751252
0001b0 ba 8c fa 3c f5 14 87 bb 5a e7 20 3d b4 5d 31 bd
       0.030584682 -0.0041223713 0.039283134 -0.043302253
0001c0 a2 48 9b bc c9 69 c1 3c 60 bf a2 39 f8 08 3e 3c
       -0.018955532 0.023610013 0.00031041633 0.011598818
0001d0 55 25 b7 3c 26 01 27 3d c3 62 65 3a f2 3e c0 3c
       0.022356668 0.04077258 0.00087503734 0.023467515
0001e0 ed 2e 27 3d 58 c6 21 bd bd 11 24 3d 8a 35 03 3d
       0.040816236 -0.039495796 0.04005598 0.03203348
0001f0 4b a8 2e 3d 1d 47 73 bc 49 98 86 bb 36 38 b9 3b
       0.042640965 -0.014848498 -0.0041075093 0.005652453

fc2.weight f4 [64, 128]
000000 3e 03 33 bd b9 f6 ac bc 55 09 ea bc 50 09 fa 3d
       -0.043704264 -0.02111374 -0.028568903 0.122088075
000010 cb 9a 8e 3b c7 aa 9b bd 67 2f 60 bc 23 41 16 3d
       0.004351949 -0.076009326 -0.013683177 0.036683213
000020 5a d7 92 bc 8d 36 f4 3d 10 ea 76 3d f9 84 a8 3d
       -0.017924953 0.11924467 0.060281813 0.082284875
000030 20 3f ba 3d 3e 33 f6 3d 0b b7 b6 3d b4 6e 3f bd
       0.090940714 0.120214924 0.089216314 -0.046736434
000040 15 06 e5 bd 75 9e cb 3d 88 8f 57 bd 95 2f 51 bd
       -0.11182801 0.09942333 -0.052627116 -0.05107077
000050 a0 08 1c 3b 82 69 b8 3d e7 24 69 bd 3d 31 9a bd
       0.0023808852 0.09004499 -0.05691996 -0.07528923
000060 3c 4b dd bd db ce 05 3c 22 d4 48 bc b8 28 04 be
       -0.108053654 0.008166994 -0.012257608 -0.12906158
000070 ee e1 09 3d bb 1a a2 3d 7d 25 c8 3c dd 36 dc 3d
       0.03366273 0.07915255 0.024431938 0.10752652
000080 6b 72 91 3d f4 6a f8 bd 3b c6 f7 bc 88 9a 79 bd
       0.071019016 -0.12129775 -0.03024589 -0.060938388
000090 2a 96 d4 3c 27 e0 9b bd 10 2d f4 bb 6c 67 fc 3b
       0.02595051 -0.07611113 -0.007451661 0.0077027585
0000a0 30 d4 58 bc 99 29 e0 bd 63 41 a4 bd a7 d0 97 bd
       -0.013234183 -0.10945434 -0.08020284 -0.07412844
0000b0 a8 cd d8 3d 38 50 12 3e ed 54 a1 bc 06 0c 41 bd
       0.10586101 0.14288414 -0.019693816 -0.047130607
0000c0 cd 9c 1b 3d ed 47 2b 3c a5 52 18 bc ee 58 fd 3d
       0.037991334 0.01045416 -0.009297048 0.123704776
0000d0 ec bd a4 3d d3 5f b8 bd a2 25 54 3d 28 05 a7 bd
       0.08044037 -0.09002652 0.051793702 -0.0815528
0000e0 16 ac b3 bd ee af cc 3d d9 4d 19 3d 83 f7 21 bb
       -0.08773057 0.099944934 0.037427757 -0.002471418
0000f0 ad c2 b6 3c 08 ef 68 bc 98 bd 08 3e 5d d1 b0 3d
       0.022309626 -0.014217146 0.13353574 0.08633683
000100 cb ac 0a 3d 93 23 87 bb 2e e4 ee bd 67 db 91 bd
       0.033856194 -0.004124114 -0.116646156 -0.07121926
000110 41 53 5d 3d 8d 68 b8 bd c0 81 bd bd 2a 56 ff bc
       0.054034475 -0.090043165 -0.092532635 -0.031169016
000120 46 bd a6 bd 7e 9e d8 3d 02 66 13 3d 07 5b d7 3d
       -0.0814157 0.10577105 0.035985954 0.10515409
000130 29 65 34 3b 26 ab ad 3c 75 35 ff 3d 9c bb 3f 3d
       0.0027526116 0.021199774 0.12461368 0.046809778
000140 6a fe 76 bd 84 b2 22 3d b6 92 91 3a 59 bc 80 3a
       -0.060301222 0.039721027 0.0011106345 0.0009821757
000150 b5 9c 8d 3d 6b b9 7c bd d6 0c b8 bd 5d e4 ae bd
       0.06914655 -0.061700266 -0.08986823 -0.085396506
000160 06 5f ff 3b b2 35 68 3d c2 52 96 bd bb 98 c0 3d
       0.00779331 0.056691833 -0.073400036 0.09404131
000170 7e 42 7e bd df a5 d7 3c f1 54 10 bd dc 04 d3 3c
       -0.06207513 0.02632421 -0.035237256 0.025759153
000180 64 99 de 3d 54 d6 93 bd 60 cb dd 3d 99 83 b4 3d
       0.10869101 -0.07218614 0.10829806 0.08814163
000190 86 bc 53 3d b8 66 d4 3d dc 7e a7 3c c8 e8 96 bc
       0.05169346 0.103711545 0.020446233 -0.018421546
0001a0 c3 d8 e6 bc 8d a2 84 bd 36 df a4 3d 53 75 11 bd
       -0.028179532 -0.064763166 0.080503866 -0.03551228
0001b0 af ec 61 3d 82 cf 99 3d 7f dc d8 bb 70 aa 9f bd
       0.05515736 0.07510282 -0.006618082 -0.0779618
0001c0 4d 52 df 3d 21 b5 0a 3d 66 8d bd bd f7 11 e7 3d
       0.109043695 0.033864144 -0.09255485 0.112827234
0001d0 96 c7 ab bd a6 12 6c bc 05 b2 cf bc 88 e5 cf 3d
       -0.08387677 -0.014408743 -0.025353441 0.101512015
0001e0 7d b8 60 3d 46 f4 8a bd 23 19 87 3c 02 7a 51 bd
       0.05486344 -0.06784873 0.016491478 -0.051141746
0001f0 62 bc e6 3c 33 35 01 3d 1d 6b 0a bd b4 2f d5 bc
       0.028166 0.031544875 -0.033793557 -0.026023723
000200 de a4 15 bb 2b 68 05 3e 5a 79 d4 3d 28 6c 2e bd
       -0.0022833864 0.13028018 0.103747085 -0.042583615
000210 eb d2 f9 3c e4 d5 e6 bd 24 8a c3 3b b1 61 82 3d
       0.030496081 -0.11271265 0.0059673954 0.063662894
000220 2e 93 90 bc cd 7a 60 3d 9d df 68 bd c8 18 c1 3c
       -0.017648306 0.054804612 -0.05685388 0.023571387
000230 ad 39 fe 3d 3b da 91 bd cc 69 80 3a 41 b3 af bd
       0.124133445 -0.07121702 0.0009797155 -0.08579112
000240 07 c5 76 bd 82 77 b4 3d da 84 98 bd dc 6a a4 3c
       -0.060246494 0.08811857 -0.074472144 0.020070486
000250 a1 22 52 3d b1 20 c9 bb 91 15 f3 3d c9 97 c0 3c
       0.051302556 -0.0061379303 0.11869348 0.023509877
000260 59 31 c1 3d 50 a6 cd bd 18 ef 8d 3c 96 7e 67 3d
       0.094332404 -0.10041487 0.017325923 0.056517206
000270 63 9d 74 3d a0 b9 a5 3d 2c 51 e4 3d 64 db 50 3c
       0.05972041 0.08092046 0.11148295 0.012747619
000280 4c fe d2 3d 3d 71 b6 3d 1e b4 75 3d 1e 5f e7 3d
       0.103024095 0.08908317 0.059986226 0.11297439
000290 be 18 5a bd 7f cc 9b 3d a9 1c de 3b 7b 31 28 3d
       -0.053246252 0.07607364 0.006778319 0.041062813
0002a0 18 b0 e8 3c eb ad e8 3c 92 ad b7 3a 85 49 bc 3c
       0.02840428 0.028403243 0.001401352 0.022984276
0002b0 90 94 82 3d 8d 82 26 bb 9a f9 a4 3d 06 f2 7b 3d
       0.06375992 -0.0025407404 0.0805542 0.06151011
0002c0 e5 ba 4f 3d 2b fa 09 3d ca f9 bb bd 75 a4 18 3d
       0.050715346 0.033685844 -0.09178503 0.037266213
0002d0 21 63 ce bc 0a 46 fa 3c 67 ac 63 bd a8 5b fd 3d
       -0.025193753 0.030550975 -0.055584338 0.12370998
0002e0 e6 e3 1b bb aa 39 cd b9 ca e1 0b bd 91 da fa 3d
       -0.002378696 -0.0003914361 -0.034150876 0.122487195
0002f0 4b 37 13 3d 92 69 ae 3d 57 d3 ef ba 61 0e b9 bc
       0.035941403 0.0851623 -0.0018297237 -0.022589864
000300 fd 7d 82 3d 55 59 87 bd 7f 8f 85 3d b0 68 10 bd
       0.063716866 -0.066088356 0.0652151 -0.035256088
000310 96 8e 01 bd 5f b2 80 bd 1e d5 b7 bc 36 d5 17 3d
       -0.03163012 -0.062840216 -0.02244049 0.03706857
000320 10 21 b7 bc 3e 1c 70 bd 90 68 07 3e 0e 20 3a 3d
       -0.022354633 -0.058620684 0.13223481 0.045440726
000330 49 1b 9b bd ba f7 35 bd 92 cc f3 3b 77 42 d3 3c
       -0.075735636 -0.044425704 0.007440158 0.025788529
000340 eb 4a 8e 3d a1 c3 4b 3d 60 33 36 bd c7 2a ae 3d
       0.06947883 0.049747113 -0.04448259 0.08504253
000350 ab f0 27 bd d9 0f 05 3b e1 f0 e2 3d 21 fd e4 3d
       -0.041001003 0.0020303635 0.110811 0.11181093
000360 d9 3b a5 bd 0e 1f 15 bd 5a 6d 8c bd 25 d0 ef bc
       -0.08068056 -0.03640657 -0.06856795 -0.029274056
000370 0f d9 df bc 71 a1 90 bc 7b 4d 3d bd cc 01 51 bd
       -0.027325181 -0.017655106 -0.04621647 -0.051027104
000380 cd 88 9a bd 56 a0 21 3d 49 c5 b3 bb 2a a4 98 3c
       -0.07545624 0.03945955 -0.0054861647 0.018632967
000390 7c 6c 8c bd fc 39 1e 3d a1 6a 8d 3d 21 e2 aa b9
       -0.06856629 0.038629517 0.069051035 -0.00032593406
0003a0 c6 ad c7 bd 79 7d 92 3d e4 79 88 bd ce e5 8d 3d
       -0.097499415 0.07152838 -0.06663874 0.069285974
0003b0 4d 86 ab bd 9e 3f d8 3d 19 3c 48 bd c8 bb 07 3d
       -0.08375225 0.10559009 -0.04888544 0.033138067
0003c0 1e 62 8d 3d da ca 50 bd 98 bb 22 bd 7c 2c a0 3b
       0.0690348 -0.050974704 -0.039729685 0.0048881155
0003d0 08 1d 9d bc 80 65 bc bd 04 3c 3e bd fa 63 52 bd
       -0.019178882 -0.09199047 -0.046443954 -0.051364876
0003e0 8c 88 82 3d aa 2b 63 bd 36 f2 93 3d ed c2 75 bd
       0.063737005 -0.055461563 0.072239324 -0.06000035
0003f0 d6 f1 76 bc 28 7c c9 3c ab 33 be 3d 6d b3 50 3c
       -0.015072307 0.024595335 0.09287199 0.012738091

fc2.bias f4 [64]
000000 05 cb 92 3d b8 66 81 bd d0 e6 9b 3d 4f 9c 53 bc
       0.07167629 -0.0631842 0.07612383 -0.012915685
000010 51 da 94 3c 72 ec bb bd 4a 53 b0 3d 6e 77 36 3c
       0.018170508 -0.09175958 0.08609636 0.011136873
000020 f1 86 b1 bd 66 6b ce bb 28 68 1a 3d 8c 0a 37 bd
       -0.08668316 -0.006299424 0.037696987 -0.044687793
000030 00 df 8c 3d fb 75 96 3d 3e 5d 6a 3d 0e b8 3a bd
       0.068784714 0.07346722 0.05721783 -0.045585684
000040 ec 08 60 bd e4 ff 02 3d 85 37 50 3d 19 df ea bb
       -0.05469601 0.031982318 0.050834198 -0.0071677086
000050 e2 3f 40 3d 26 7d 2d 3d 94 37 ab bd 96 6f c6 3d
       0.046935923 0.04235568 -0.0836021 0.09689252
000060 0c 9d 45 3c 52 c5 ac 3d e6 7b a3 bc b5 1a 9d 3d
       0.012061369 0.08436073 -0.01995654 0.076711096
000070 0e ac b4 bd 72 ad a3 3d da a5 56 bd c6 61 88 3d
       -0.08821879 0.079920664 -0.052404262 0.06659274
000080 f9 14 c2 3d bc 5b 9a bd c1 0f 29 bb 15 1c 6f 3d
       0.094766565 -0.07537028 -0.0025796744 0.05837639
000090 79 7a fa 3c 15 99 02 bd 22 e1 34 3d f8 2c 35 bc
       0.030575978 -0.03188427 0.044160016 -0.011058085
0000a0 83 64 9f bc f4 e9 0e 3c fc 1f 7e 39 d2 bf 3f 3b
       -0.019457107 0.008722771 0.00024235243 0.002925862
0000b0 7a c0 95 3d 27 2e 76 3c ee 55 64 bc da c2 80 3d
       0.073121026 0.015025652 -0.013936503 0.06287165
0000c0 88 15 84 3b 30 26 56 bc 34 89 0f 3d 00 36 73 bd
       0.004030887 -0.013070628 0.035042956 -0.05937767
0000d0 9e 9f 71 3d 6f 49 00 3c c0 9b 94 bd 37 84 5e bd
       0.058990113 0.007830008 -0.072562695 -0.05432531
0000e0 6d 7d b8 3c 54 34 26 bd e2 2f 59 bc 72 96 42 bd
       0.022520745 -0.040577248 -0.013256045 -0.047506757
0000f0 02 e7 31 3d bc a5 65 3d 2c f1 96 bd 78 8c a6 bd
       0.043433197 0.05606626 -0.07370219 -0.08132261

fc3.weight f4 [3, 64]
000000 5f 92 07 be 9c dc bf 3d 41 d8 f0 3d bd 7e f2 bd
       -0.1323943 0.0936825 0.11759997 -0.1184058
000010 d3 bc 6e bc 06 50 ba 3d da 27 0f 3e 57 35 b6 bd
       -0.014571386 0.090972945 0.13980046 -0.088968925
000020 9c 74 c1 bd 12 37 82 3d ac c1 07 bc ab 42 29 3e
       -0.094460696 0.0635816 -0.008285921 0.16529338
000030 b8 e9 42 3d db 62 ef bd f9 8e 1f 3e 10 ab 59 3d
       0.047586173 -0.11688777 0.15581883 0.053141654
000040 c1 92 32 bd a8 94 c4 3c b0 89 a6 3d 6f c5 0b 3d
       -0.043596987 0.023996666 0.081317306 0.034123834
000050 01 f4 fd 3d 12 c2 da 3d 13 3c a3 3d ea 47 5e bd
       0.12400056 0.10681547 0.079704426 -0.0542678
000060 ff 89 d6 3d fa e7 27 be bd 4f c8 bd 67 f3 2a be
       0.104755394 -0.16397086 -0.09780834 -0.16694413
000070 e1 e2 3d 3b b9 13 95 3d 00 83 b8 bd 6b 55 29 be
       0.0028974342 0.072791524 -0.09009361 -0.1653649
000080 31 11 99 bd 2c af 45 bd 57 53 7d 3d 2c 48 91 bd
       -0.07473982 -0.04826276 0.061847057 -0.07093844
000090 65 98 17 be 8c 6a 4c bc a1 b6 f8 3b a2 28 6c 3b
       -0.14804228 -0.012476575 0.0075901304 0.0036034961
0000a0 d0 99 47 3d a3 ed f7 bc 40 12 de bd 53 bc a8 bd
       0.04873067 -0.030264681 -0.10843325 -0.08239045
0000b0 c9 b3 d9 3a aa 2f 8b bd 38 1f 64 bd f7 75 33 3e
       0.0016609366 -0.067962006 -0.055693835 0.17525469
0000c0 03 96 0c be d3 a5 87 bd a0 71 79 bd cb 1d bb bb
       -0.137291 -0.06623425 -0.060899377 -0.0057103387
0000d0 a7 12 0e 3d 62 96 fe bd a6 32 ff 3d fe 5a ef bc
       0.034685757 -0.12431027 0.12460832 -0.029218193
0000e0 dc 2b ab bc f8 50 5d bd d0 b3 e7 3d 36 f3 34 3d
       -0.020894937 -0.054032296 0.113135934 0.044177257
0000f0 1b 71 1f 3e 1c da 55 bc bc ac 32 be 3a bf 33 be
       0.1557049 -0.01305249 -0.17448705 -0.17553416
000100 03 e5 32 3e f1 71 d7 3b 3e 60 25 be 2b 98 9b bd
       0.17470174 0.006574862 -0.16149995 -0.07597383
000110 2d a5 d8 bd 93 7e a3 3c 80 5c fd bc 6b c5 16 3d
       -0.1057838 0.019957816 -0.030927896 0.036809366
000120 7a a2 c3 bd ae b0 09 be 00 1a d9 bd 2d 0a b5 3d
       -0.09552474 -0.13446304 -0.10600662 0.088398315
000130 9f b7 be bd 53 c2 d0 3d f8 66 8d bd 24 ca 21 be
       -0.09312367 0.101933144 -0.06904405 -0.15799767
000140 4d bd b9 3d a1 b1 0a bc e6 53 03 3e ce 00 0d bd
       0.090693094 -0.008465202 0.12824973 -0.034424596
000150 ac 37 21 be 39 08 af 3c 9d d3 c3 bd d1 81 9e bc
       -0.15743893 0.021366226 -0.095618464 -0.01934901
000160 32 09 b3 3c 28 6e 3e ba 9a 27 0f 3e 48 3a 9b 3c
       0.02185497 -0.00072643394 0.1397995 0.01894869
000170 21 11 1e 3e 9d 6c 50 ba 3b 81 52 bc 81 e5 90 3d
       0.15436222 -0.0007950755 -0.012848194 0.070750244
000180 18 fd 02 3e db aa cc bd 6b aa 0c be fa bc f7 3d
       0.1279186 -0.099935256 -0.13736884 0.12096591
000190 7a 0b fe 3d fb 32 ba bc ee cc b6 bd 62 f6 23 be
       0.12404533 -0.022729388 -0.08925806 -0.16011956
0001a0 c7 53 28 be f7 93 b8 3d 35 04 19 be 83 4c 9f bc
       -0.16438209 0.09012597 -0.14943011 -0.019445663
0001b0 36 e8 2a 3e b7 f2 02 be 6a 75 e4 3c ef 15 f5 bd
       0.16690144 -0.12787901 0.027888019 -0.11967074
0001c0 73 c7 97 bd 9e 64 19 3e b5 fe 1c 3c 19 37 1b be
       -0.07411089 0.14979789 0.009582211 -0.15157737
0001d0 32 59 2b be 7f 3f 05 3e 51 42 25 bc 00 91 18 be
       -0.16733244 0.13012503 -0.010086612 -0.14899063
0001e0 88 c6 82 3d 40 2c 0c 3d db 20 2e 3d 6b 78 0a be
       0.06385523 0.034221888 0.042511802 -0.13522498
0001f0 b3 a3 9e 3b 7f 84 ef 3b 2f ef ad bd af be f4 bb
       0.004841292 0.007309496 -0.08492886 -0.0074690203
000200 66 a9 2a bd 0b 89 0a be 59 ed ad 3c 46 db 22 3e
       -0.041665457 -0.1352884 0.02123134 0.15903959
000210 67 af cf bd 67 a0 8c bd 21 d5 9c 3d 30 81 46 3d
       -0.10140877 -0.06866532 0.076578386 0.048463047
000220 80 62 1b 3d 93 0f 98 bd 8c fa 52 3d f6 32 05 be
       0.037935734 -0.074248455 0.05150847 -0.13007721
000230 1b 4e eb bd d8 af 23 be bd d1 11 3e e8 78 d1 bc
       -0.11489507 -0.15985048 0.14240165 -0.025570348
000240 aa c2 fa bd 9a ac 01 be b4 f0 fd bd 1e 70 ba 3d
       -0.122441605 -0.12663499 -0.12399426 0.09103416
000250 1a a2 e3 3d 1e 71 79 bd 6c d5 c6 bd 5c 40 bf 3d
       0.11114903 -0.060898893 -0.09708676 0.093384475
000260 28 54 12 be 84 18 a5 bd c8 7a f7 3d d2 be 18 be
       -0.14289916 -0.080613166 0.120839655 -0.14916542
000270 ec 01 16 be e9 5f 2b bd 67 98 be bd 44 7c 09 3e
       -0.1464917 -0.041839514 -0.09306412 0.1342631
000280 c3 da 0d 3e c3 65 06 be 48 1d fe bd 76 62 2a 3a
       0.13852982 -0.13124757 -0.12407929 0.0006499657
000290 ca 59 bc bd 8d 95 c6 bd b1 2e dd bd 73 3a 29 3d
       -0.091968134 -0.09696493 -0.10799921 0.041315507
0002a0 4f 51 cb 3b 0c 92 da 3d ff f6 0b 3e d1 e0 d2 3d
       0.006204761 0.106723875 0.1366844 0.102967866
0002b0 02 0c bf 3d e1 4f e7 3d c9 c1 df bd 50 ff a1 bd
       0.09328462 0.112945326 -0.109256335 -0.07910025
0002c0 78 a5 ef 3d 7a c0 a6 bd bc a5 69 3d 9f a9 0e 3a
       0.117014825 -0.08142181 0.057042822 0.00054421456
0002d0 86 06 bf 3b 2f b3 62 3d ab 4f 01 3e db 4f ad 3c
       0.005829635 0.055346664 0.12628047 0.021156242
0002e0 72 23 56 bd 9a 6e dc 3d 6f 6d 99 bd e2 79 f2 3d
       -0.052279897 0.10763283 -0.07491576 0.118396536
0002f0 80 99 fb 3d 69 f4 c5 bd 58 42 21 3e 28 c8 9b bd
       0.12285137 -0.09665758 0.15747964 -0.07606536

fc3.bias f4 [3]
000000 d8 1b 10 3d 49 52 9f 3d 39 b7 b1 bd
       0.035182804 0.077793665 -0.08677525
