Model/sentiment_model.pth (torch, 430232 bytes, 6 tensors)

fc1.weight f4 [128, 768]
00000000: b2f5 35bd 79f2 99bc 1c6a a73d b3b0 743c
00000010: 735f f53c b669 7db9 e4b7 61bc 7a18 343c
00000020: b5a6 73bd 974c 7fbc a522 2f3c ade7 0c3c
00000030: bc9f d23c 4374 83bb b36d 24bd 00cf 383d
00000040: 41e9 f7bc a9be 133d 3375 083d ec51 19bd
00000050: d95e be3c 269e 47bd 7fd1 db3c d02f c5ba
00000060: de63 c53c a660 0cbd c457 2bbd 7d19 de3c
00000070: 249a 723d f7a3 173b 578c b23c 0833 19bc
00000080: b6f5 d83c f6de bcbc 63d6 cbb9 7b9a 20bd
00000090: 74f2 07bc 90fd a13c b8be a839 b90a 623c
000000a0: aaa2 253d ea40 c5bb 73da 223c 7601 55bd
000000b0: 7293 83bd c196 763c a8c6 183c d98b 33bc
000000c0: aedf e33c e3d1 bbbc e41f 2c3c f5f7 a43c
000000d0: 3f86 15bd 7d06 08bd 4579 383c 728c 1b3d
000000e0: a11c 3bbd 9917 d03c fda7 99bd 115e ddbb
000000f0: 1e70 16bd 8e2b 5abd f362 8c3d 6b3f 41ba
00000100: c394 ad3c 576c 48bc c8db a53c 0e55 943c
00000110: 8584 7dbb 3f84 9fbd fc3c af3a 243e 49bd
00000120: f082 31b9 f92c 983c fd97 86bd 829e 7ebb
00000130: e0cb acbc 3cdf 813c 96c3 12ba dea1 14bb
00000140: 24ff 8abc 3227 813d a427 68bd 56e2 923c
00000150: 72ac 22bc 1414 0d3d 2987 6c3c 5455 363d
00000160: 557c 0fbc a21c 573d 694b 3abc cd39 73bd
00000170: ba4b 27bd f8e7 6a3c 5c2b 783d 01ca c03c
00000180: deff 163d 5a2d 67bc a286 ecbc 2ea7 f1bc
00000190: 45a5 06bd ca17 9fbb ef25 0bbd e725 2abc
000001a0: 7277 b6bc 0a0c c1bb 8154 2d3c 33cf 01bd
000001b0: 95de 243d d702 6abb 9c35 8f3c 798f 7fbc
000001c0: 6f89 3bbc f1ca 12bc 8a7d 973b 087a 683c
000001d0: 3039 2c3d 0b12 513c ee18 70bc 1130 8b3b
000001e0: 0235 a33c 48ef 773c 8525 723c 07ef 72bb
000001f0: 2236 8cbc 2c91 8f3b 42ff 7dbd 314b 973d
00000200: e31f 793d 063a babb a068 933d 432a 5bbc
00000210: c5ee 18bd baf0 c8bc 06f6 aebc a74f 113d
00000220: 8bd6 87bd 3321 97bc bf12 333c 7d20 0a3c
00000230: 3fb9 17bd 568f 443a e4fc 31bc afbc 543a
00000240: 2d29 c5b9 d2ad 81bc 8c2d e13c b980 b5bc
00000250: e10d 15bc a19c c73b d654 913d b920 1a3d
00000260: ef64 0abd 274c e6bb 2fee ecbc 6fd3 933d
00000270: cc0d e53c 7fd4 bdbc 61e1 393d f248 eebc
00000280: ab9e e53c 0bb0 5f3c ef6d b4bc c0e7 10bc
00000290: 4a0a 46bd 92f9 c7bb 7b55 7ebc 8036 dd3c
000002a0: 40ba 91bd bfa5 71bd e8d3 82bd bdb7 783d
000002b0: fa66 573d 2aa3 533d 3853 3cbc 6387 a9bd
000002c0: 3a0a c43c 1ec2 503d 2d1f 853d a629 91bc
000002d0: 4d71 db39 16c2 75bc 91f8 343d 92c5 93bc
000002e0: cbdf 733d a1b0 52bd aaab 9d3c bd32 b4bc
000002f0: 9975 803d 4732 22bd 1424 48bc c99e 8b3c
00000300: dc1c aabc f4a8 2abd 5429 ac3c 0f15 76bc
00000310: c2d5 fcbc 4b35 f23c 4248 cabc e9ac 1dbd
00000320: ac65 eb3c faf0 c4bc cddd d8bb 5098 c1bc
00000330: b0bf 49bb a47e 8abc 7c64 6e3d 8081 a8bc
00000340: 8577 c7bc b4c2 07bc 2c36 18bd 034b edba
00000350: c10e 9b3c 992a 5abd 007d 59bc 9931 e33c
00000360: 4ae7 36bd 3887 a5bc 809a c73c 4ef4 bcbc
00000370: 9546 d23b f334 903d 3398 dc3b d3e3 0b3d
00000380: 8f98 9dbc 8281 313d 2f57 98bc 31e0 aebc
00000390: a220 28bd cdc2 7f3d 555d a53b 11af 133c
000003a0: 880d 583c 7883 a8bc efef 83bc a504 043c
000003b0: 590c 923c baee f33c 5577 493d 8bd1 213d
000003c0: f1c3 973b afc1 5dbd 7cfb 053d 2baf febc
000003d0: 865c 75bc 4b7d 923d cd71 e8bc 59c4 0fbd
000003e0: 2d29 6a3d d253 babc 8dfa 3cbb 101e 13bd
000003f0: e2d1 d33c e016 be3b e238 93bc c0d8 30bd
-0.044423766 -0.018792378 0.08174536 0.0149347065 0.02995274 -0.0002416734 -0.013776753 0.010992164
-0.059485156 -0.015582225 0.010689412 0.008600158 0.025710933 -0.004011662 -0.04014368 0.045119286
-0.030262591 0.0360705 0.033314895 -0.037431642 0.023238586 -0.048734806 0.026833294 -0.0015044156
0.024095472 -0.03427186 -0.041831747 0.027111763 0.05922903 0.0023138502 0.021795435 -0.009350546
0.026484352 -0.023055535 -0.00038878908 -0.039209824 -0.008297551 0.019774228 0.00032185554 0.013796502
0.04043833 -0.0060197012 0.009939778 -0.052003346 -0.06424607 0.015050591 0.009324707 -0.010958635
0.02781662 -0.02292723 0.01050565 0.020137766 -0.03650498 -0.033209313 0.011259382 0.037975736
-0.0456816 0.025401877 -0.07502744 -0.0067555984 -0.036728017 -0.053264193 0.068548106 -0.0007371816
0.0211891 -0.0122328615 0.020246401 0.018106963 -0.0038683724 -0.07788896 0.0013369615 -0.049131528
-0.00016928813 0.018576132 -0.06571958 -0.0038851802 -0.021093309 0.015853517 -0.00055986026 -0.0022679488
-0.016967364 0.06306304 -0.05667843 0.017930191 -0.0099288095 0.034442976 0.014436522 0.04451497
-0.00875767 0.05251754 -0.011370518 -0.059381295 -0.040843703 0.014337532 0.060588226 0.023533823
0.036865108 -0.014109934 -0.028872792 -0.029498663 -0.032872457 -0.004855131 -0.033971723 -0.010385013
-0.022273753 -0.0058913277 0.010579229 -0.03169174 0.040251333 -0.003570726 0.017481618 -0.015598171
-0.011446341 -0.008959518 0.0046231197 0.014189251 0.042046726 0.012760649 -0.014654381 0.0042476733
0.019922737 0.015132733 0.014779453 -0.003706874 -0.017115656 0.0043813195 -0.06201101 0.073873885
0.060821425 -0.0056831865 0.0719769 -0.013376775 -0.037337083 -0.02452885 -0.021357547 0.035476353
-0.06632718 -0.018448448 0.010929762 0.008430597 -0.0370419 0.00074981654 -0.0108635165 0.0008115274
-0.00037605446 -0.015829954 0.027487539 -0.022156106 -0.009097547 0.0060916697 0.07096259 0.037628863
-0.033787664 -0.007028121 -0.028922169 0.07218062 0.02796068 -0.023172615 0.045380954 -0.029087517
0.02802976 0.013652812 -0.022025077 -0.008844316 -0.048349656 -0.006102749 -0.01552331 0.027003527
-0.071156025 -0.05899596 -0.06388074 0.0607221 0.05258844 0.051669277 -0.01149445 -0.08277776
0.023930658 0.050966375 0.06500087 -0.017720055 0.0004185535 -0.014999887 0.044182364 -0.018038545
0.059539597 -0.051437978 0.019246895 -0.02199685 0.0627243 -0.03959873 -0.012215633 0.017043488
-0.020765714 -0.041665033 0.0210158 -0.015019669 -0.030863646 0.029566428 -0.024692658 -0.038494978
0.028735004 -0.024040688 -0.0066182376 -0.023632199 -0.003078442 -0.01690609 0.058201298 -0.020569563
-0.024348984 -0.008286167 -0.037161037 -0.001810402 0.018927934 -0.05326328 -0.013274431 0.027733611
-0.04465417 -0.020206079 0.024365664 -0.023065712 0.0064171054 0.07041349 0.0067320107 0.034152817
-0.019237785 0.0433364 -0.01859626 -0.021347137 -0.041046746 0.062441636 0.0050465264 0.009013907
0.01318682 -0.020570502 -0.01610562 0.008057748 0.017828153 0.02977692 0.04918607 0.039506476
0.0046315123 -0.05413979 0.032710537 -0.031089386 -0.014975673 0.07152804 -0.028374577 -0.03509936
0.057168175 -0.022745047 -0.0028835863 -0.03591734 0.025856916 0.0058010668 -0.01797146 -0.04317546

fc1.bias f4 [128]
00000000: b966 0d3d 9d91 483c 23de 4d3b c48b 333a
00000010: c9f7 fe3c a6b4 74bb 3107 123c 5100 abbb
00000020: 1f23 2dbc 047f da3b 2004 253b 6f96 603b
00000030: db1c f2bc a941 f23b 2097 91bc 12c5 6e3c
00000040: 3443 f63c c33c de3a b9a1 62bb 91fe ec3c
00000050: 4acd 293d 168c 103c 5be0 2cba 6079 5ebc
00000060: 2450 f1ba c45c 203c 018c 153d 9d71 dd3c
00000070: 9e11 72bc 920a 163b 9dfa 093d c6f3 9dba
00000080: 0871 103c 6f39 023d 8557 263d 850b 46bc
00000090: a4f9 82bb 8091 103d 4e12 f63c 8f5e 053d
000000a0: 0f1f bf3b cfc1 8e3c f026 ef3c 4589 b53c
000000b0: b61a 503b e10f 3f3d f652 d93b 1374 23bc
000000c0: 4fa6 99bb 116d 2abd 052e 9abc 1302 ce3c
000000d0: 09d4 423b a735 df3c 6761 e93b e7de b53c
000000e0: 4c5e 2a3a 41f8 803a 3827 053c 7e60 16bd
000000f0: 00c7 883c 12e6 15bc dec6 603b daa5 d83c
00000100: 948c 6e3b f9eb b13c b3bb 4a3b 95eb 1b3c
00000110: 1ca7 173d 4198 1bbd b402 28bc 8b86 ffbc
00000120: 608a e23c a57b 133d a89f 113a da0c adbc
00000130: 7d98 883c d2d8 cbbc a5cd 253d d771 6ebc
00000140: f76d 0f3c a217 ed3c 536c a73c c866 0b3d
00000150: e90e 233d 1919 303c 659e d23c 839a 523d
00000160: 64e7 dc3c d7f7 463d 0c32 1b3d 1e8f 20bd
00000170: 78ac e33b 42a2 183d 1606 67bb d5f1 03bd
00000180: 0d3d 163d 5a9b 6bbc cc34 d23c 2084 aa3c
00000190: 0cda f93c 662a b1bc ba91 7eba b7bf f8bb
000001a0: dd85 3d3c eb12 983c 181b 233d 2af4 283d
000001b0: e923 a43c 5e87 0a3d 0b63 d6bc 0359 183d
000001c0: 122d 353c cad4 183d 2995 a73c 8d96 96bc
000001d0: d826 2c3d a4b5 6b3d 4a7c 66bc d7f0 d9bc
000001e0: b037 fb3c 0a39 0f3d 8dae 713d 3ea9 413d
000001f0: 7e59 8e3c 29b5 3a3d cc36 f33c f7bc 383d
0.034521792 0.012241748 0.0031412921 0.0006849135 0.031124013 -0.003733912 0.008912847 -0.0052185436
-0.010567456 0.0066679735 0.002517946 0.0034269353 -0.029554775 0.007393081 -0.017772257 0.014573352
0.030061342 0.0016955364 -0.0034581257 0.02892998 0.041455545 0.008822462 -0.0006594711 -0.013578743
-0.0018410725 0.009787742 0.03651047 0.027031714 -0.014774708 0.0022894484 0.03368627 -0.00120508
0.008816011 0.031793054 0.04061081 -0.012087707 -0.0039970446 0.03529501 0.030038025 0.03256088
0.00583256 0.0174264 0.029193372 0.022160182 0.0031754202 0.046646003 0.006632204 -0.009976405
-0.004689015 -0.04160792 -0.018820772 0.025147473 0.0029728434 0.027247263 0.007122207 0.022201015
0.00064990367 0.000983961 0.008127026 -0.036713116 0.016696453 -0.009149091 0.0034298222 0.026446272
0.003639971 0.021718966 0.0030934631 0.009516616 0.037024602 -0.037986998 -0.010254551 -0.031192085
0.027653873 0.03600659 0.00055551017 -0.021124292 0.016674275 -0.024883661 0.04047932 -0.014553509
0.008754245 0.028941933 0.020437395 0.034033567 0.03980914 0.010748171 0.025710294 0.051416885
0.026965804 0.048576202 0.037889525 -0.039198987 0.00694805 0.037264116 -0.003525143 -0.03221305
0.036679316 -0.0143803 0.025659941 0.020814955 0.03049948 -0.021626662 -0.0009711046 -0.0075912136
0.01156756 0.018563708 0.03982076 0.041248478 0.020036655 0.033820502 -0.026170274 0.037194263
0.011058109 0.037312306 0.020456867 -0.018382335 0.04202923 0.057546273 -0.014067719 -0.0266041
0.030666202 0.034966506 0.059004355 0.047280543 0.017376658 0.045582924 0.029689215 0.045102086

fc2.weight f4 [64, 128]
00000000: b2f3 813d 4aad 353d 569c e9bc faf6 1bbc
00000010: 508c cd3d d9d3 493d bdd4 9cbc ed09 0cbd
00000020: d485 45bc 397b a53b efa4 b2bc b5a4 933d
00000030: a176 98bd 9e29 b03c e00b 87bd 799a e73d
00000040: 80b8 e53d 2497 803d bd78 e3bc a206 b63c
00000050: 3692 c0bc 5aa8 9fbd ddb4 e83d b061 e33b
00000060: 7506 ac3d 5007 d8bd ba32 1bbc 25a4 723d
00000070: a811 593d f3be 8f3d bc43 78bd af79 1fbd
00000080: 2f6f 6f3d 58de 7f3d f2ad 8a3d 434a 273d
00000090: 4631 ef3d 2cc9 083e 43a4 abbd 519c 8cbd
000000a0: 75dd dd3d bc24 9bbc f530 55bd 6a88 79bb
000000b0: 08e2 57bd bdf3 f13d f5a2 f5bc b71d be3c
000000c0: c26e f2bb bc3d 453d 00e6 a3bd 0b45 73bc
000000d0: 47ec 20bd 3165 403d 5057 0f3c 5e47 313d
000000e0: 2a24 c93d 1134 36bb 193e 92bb 004e c6bc
000000f0: 5162 053c 0537 a2bd 7f78 fe3c 2c89 97bc
00000100: 0f46 9c3c 6613 0b3d 92d3 aa3c 831e 8abc
00000110: 9bbb 403d 29b4 27bd def7 8a3d d8fe 51bc
00000120: c4d4 583d 8795 4d3d d464 8c3d d09c a4bb
00000130: b061 623c fa0f 083d 1a21 9d3d 8de1 ff3c
00000140: a731 fb3d 3167 da3c 587e 8b3d 28a9 c73d
00000150: c98e c8bb 4dc0 a73d dd3e b2bd d180 743d
00000160: 2c87 87bc 5798 c0bd 2c9a d9bb 6920 5b3a
00000170: e73f 8bbd 5353 28bd 9010 cebb 8773 bf3c
00000180: bf54 223d c62e 6abb b6f9 5abc 06f5 4a3d
00000190: 4eec 60bc 2e53 1e3c 6c60 e63d 0b9b f13d
000001a0: de1f 4a3d a6ba c4bd 2387 96bd 1de4 013e
000001b0: e903 2cbd ed25 f73c 69e6 f9bc 376c 7f3c
000001c0: 0c50 413d 17d8 6ebc 86dc 17b8 e6af 38bd
000001d0: 21c2 b93c 5590 c03d 2b91 59bd 6494 5fbc
000001e0: 733a 81bc d5d5 d93d 2b5e 833c 32e2 e73b
000001f0: 4868 49bd bbe1 f63d 49da bd3b 5f26 2bbd
00000200: b907 80bd eaf0 043d 29fe 7bbc 7651 bb3d
00000210: f875 e73b cef8 b83d 7133 e43d 83a0 bcbc
00000220: cb02 893c 90bf a4bc 895e b0bd 0e4b 2fbd
00000230: b84e 723d ece9 a7bd 5c71 713d 8bf7 9ebd
00000240: 2a03 b83d 2b9c e93c 129a 62bc c27b 9c3c
00000250: 9f3d 953d 94fa 0d3d 8510 59bc 0e2f bf3d
00000260: ebab b9bd 4d7e 353d cd75 cdbc e02b 83bd
00000270: 34e8 813d cc97 e23c 2ca7 3bbd 952b 45bc
00000280: 6fe7 863d 4cb7 923a 97a6 a03c cfe8 1abd
00000290: 814e 7abd dfd2 70bd 48e2 aa3d a67e 903d
000002a0: 2f95 e83d 6fda 433d a467 dc3c 0e6e 623d
000002b0: cedf 073e 046d 0d3d 4b5c ec3d 4269 743d
000002c0: 9984 24bd 9704 263d 9918 2b3d 7162 80bd
000002d0: 5349 c73a 960e 403d a328 be3c e5bc 2fbc
000002e0: 2e1e cbbc df8a ac3d 980c 953d ab3f e1ba
000002f0: 9ba5 cd3d 2564 b4bc 5c6f f8bc 97d1 c2bc
00000300: 073d 5b3d 1a21 df3c 7d75 02be d358 023e
00000310: 6ae9 bd3d f55d a83d 6fc1 df3d e06d f53b
00000320: df16 5ebb 54b5 dcbd c44b ddbc d6f6 5b3d
00000330: a5e4 94bc 7c3a 24bc ccc2 8b3d bef7 a43d
00000340: f09a 0bbc 89ca 8d3d 63ab bbbd 21be f5bc
00000350: 0104 d8bd 172d b03d b043 5dbd abe5 6fbd
00000360: 2c39 8bbd 0270 c43d 21d7 6d3c bcd7 6b3d
00000370: 252e 2ebd 144f d53d 820f 58bd 93ff fe3c
00000380: 3342 a9bd 2411 9dbc 35b4 493d f804 93bc
00000390: 1def 92bd 9c11 bebb 6b06 9ebd eb96 923d
000003a0: 26a6 223d e8cd 3e3d 093d c83d ed81 823d
000003b0: 156e 7fbd 9f1b 2b3c ea12 11bd af3a 273d
000003c0: 8686 88bb 4680 023d 7596 0cbd b542 053e
000003d0: eb83 d63d 1e6b 28bc 002f a63b 5770 a1bd
000003e0: d6d8 debc 5f7e 6d3d 19f4 0b3d f519 d9bd
000003f0: 7e7c 11bd 4418 d73d 5bd9 133e b196 813c
0.06345309 0.044354714 -0.02851693 -0.009519333 0.10036528 0.0492743 -0.01914441 -0.034189153
-0.012055833 0.0050500897 -0.021807162 0.0720915 -0.07444502 0.02150422 -0.06594062 0.1130876
0.11216831 0.06278828 -0.027767533 0.02221996 -0.023507219 -0.077957824 0.11362622 0.0069391355
0.08399669 -0.1054827 -0.009472543 0.05923857 0.052995354 0.070188425 -0.06061147 -0.038934406
0.058455642 0.062467903 0.06771459 0.040842306 0.1167932 0.13357991 -0.0838094 -0.068657525
0.10833255 -0.018938415 -0.052048642 -0.0038075694 -0.052705795 0.118140675 -0.02998493 0.023207529
-0.0073984573 0.048154578 -0.080028534 -0.014848004 -0.03928783 0.046971504 0.008748844 0.04328095
0.09821351 -0.002780203 -0.004462969 -0.024207115 0.008141116 -0.079206504 0.031063316 -0.018498026
0.019076375 0.033954047 0.020852838 -0.016860252 0.047053915 -0.0409433 0.06785558 -0.012817107
0.052937284 0.05019143 0.06855169 -0.0050235763 0.013817236 0.03321836 0.07672329 0.03123548
0.1226533 0.026660534 0.068112075 0.09749061 -0.006120537 0.08190975 -0.087033965 0.05969316
-0.016543947 -0.094040565 -0.006640693 0.00083590165 -0.06799298 -0.04109509 -0.0062885955 0.023370517
0.0396316 -0.0035733446 -0.0133652 0.04955008 -0.013728214 0.009663386 0.1124886 0.1179715
0.049346797 -0.09605913 -0.07349994 0.12684675 -0.041995917 0.030169452 -0.030505376 0.015589765
0.04719548 -0.014577887 -3.6206584e-05 -0.045089625 0.022675576 0.09402529 -0.05311696 -0.013646219
-0.015774941 0.10636488 0.016036114 0.007076525 -0.049171716 0.120547734 0.005793844 -0.04178464
-0.06251473 0.032456316 -0.015380421 0.09146397 0.0070636235 0.09031831 0.11142624 -0.023025757
0.016724965 -0.020110875 -0.08611781 -0.042796187 0.059157103 -0.08198914 0.058946 -0.07762059
0.089849785 0.02851685 -0.013830679 0.019101981 0.07287144 0.034662798 -0.0132485675 0.09335147
-0.09065994 0.044309903 -0.025080586 -0.06404853 0.06343117 0.027660273 -0.045813724 -0.012034317
0.06587111 0.0011193543 0.019610686 -0.03781968 -0.061110023 -0.058794852 0.08343941 0.07055406
0.113565795 0.047815736 0.026904888 0.055280738 0.13268968 0.034527794 0.11541041 0.059670694
-0.040165517 0.04053172 0.041771505 -0.06268776 0.0015204347 0.04688891 0.023212736 -0.010726188
-0.024794664 0.08424925 0.07277793 -0.0017185112 0.10041352 -0.022020409 -0.030326538 -0.02378158
0.053524997 0.027237464 -0.1274013 0.12729196 0.09273036 0.08221046 0.109255664 0.0074899048
-0.0033888144 -0.10776773 -0.027013667 0.053702198 -0.018175432 -0.010023709 0.06824264 0.080550656
-0.008520827 0.06923396 -0.09163549 -0.029997887 -0.10547639 0.0860235 -0.05401963 -0.058568638
-0.06798014 0.09591676 0.014516623 0.057578787 -0.042524476 0.104154736 -0.052749164 0.031127727
-0.082645796 -0.019173212 0.049244124 -0.017946705 -0.071745135 -0.005800439 -0.07716068 0.071576916
0.039709233 0.046583086 0.097772665 0.063724376 -0.06236084 0.010443597 -0.03541843 0.04082745
-0.004166427 0.031860612 -0.034323175 0.13013728 0.1047438 -0.010279445 0.005071521 -0.07882755
-0.027203005 0.057981845 0.034168337 -0.10600654 -0.035519116 0.10502675 0.14438383 0.015818926

fc2.bias f4 [64]
00000000: 4d60 c53b 92a8 c43d e024 cabb 5d13 c03d
00000010: 0509 6fbc 0fbd 633d 1dcb 643d 90b1 533c
00000020: c58a 643d edc0 60bb e8bd 5abd 5381 52bd
00000030: 1019 8dbd 9280 5bbd f290 34bd 4b71 4f3d
00000040: d38c 703d e1d1 7e3c 655a 0e3d a952 613d
00000050: 42b1 bbbc 5857 16bc dd1b 3ebd 095c 84bd
00000060: 4781 edbb 8f57 afbd 04a4 97bd 38f1 bd3b
00000070: e189 34bd dbfa 42bc 174a 3bbd d7b0 edbc
00000080: 789b e43b eb53 acbd 8c53 34bd b7eb d03b
00000090: edc3 36bd c587 babc 10cf 9ebd 1819 453d
000000a0: 86ba 9d3d 61e9 b53d 44bb c5bc d14b 3bbd
000000b0: d8f7 603d 7dd2 e43d bc64 70bd b004 23bd
000000c0: ac26 ae3d 15e8 6c3d 2fc4 d23c c3df 2cbd
000000d0: 2475 ac3c 8767 ea3c 05d3 a13d bf9e 353d
000000e0: 86ae d5bc 76d4 19bd 0103 a43b 585c 70bd
000000f0: 9c22 38bc eb6c cd3c 3059 adbd 30f0 293d
0.006023443 0.09602465 -0.0061689466 0.09378693 -0.014589553 0.055600222 0.055857766 0.012920752
0.055796403 -0.003429468 -0.053403765 -0.051392864 -0.06889546 -0.05358941 -0.044083543 0.050645154
0.05872805 0.015552969 0.034754176 0.05501047 -0.022911672 -0.009176098 -0.04641329 -0.06462867
-0.007248077 -0.08561622 -0.074043304 0.005796578 -0.044076804 -0.011900629 -0.045724954 -0.029014988
0.006976541 -0.084144436 -0.04402499 0.0063757556 -0.044620443 -0.022769818 -0.07754338 0.048119634
0.07701592 0.08882404 -0.024137147 -0.0457266 0.054923862 0.1117296 -0.058689818 -0.039799392
0.0850347 0.05783852 0.025728313 -0.042205583 0.02105195 0.028613819 0.07901577 0.044340845
-0.026084196 -0.037556134 0.005005241 -0.058681816 -0.01123872 0.02507635 -0.08464277 0.041488826

fc3.weight f4 [3, 64]
00000000: b372 863d 4dc9 5b3c 8081 ee3a ed71 e3bd
00000010: e7a7 fc3d f8d5 11bc c198 be3d 3cf1 1a3e
00000020: 0bec dd3d d969 153e 8044 963b 4333 243e
00000030: 6568 d53d 6dd0 193e 562f 2ebe a5e7 c53d
00000040: 4886 923c 9b97 b73c 2f19 2fbe d203 1cbd
00000050: 167e e53d d0dd 8ebd 0d75 143e 0b1e d8bd
00000060: 425b 0abe 8020 1a3c ac2a 8b3d 554c 40bd
00000070: b24b d23d b1c4 28be f9e3 e63b cf4d 2e3e
00000080: dd92 bcbd d684 91bc ef24 efbd 23bc 0f3e
00000090: 8a34 a73c c034 3cbc c1ac c43d fa52 b1ba
000000a0: 4765 f73c ead3 21bd 2f1d 953d 2c88 963d
000000b0: 7b17 6fbb 2f9d b1bd 7035 0abd 9471 85bd
000000c0: 437f 233e 80c8 fa3d 6c97 efbd 8577 d7bc
000000d0: 0c80 97bc b240 0bbd 4729 71bd b6a8 1b3e
000000e0: a286 c7bd 0bab 853d 216c 06be 0880 a6bd
000000f0: bd12 ab3d 4249 2e3e c635 a3bd 9e3e c0bc
00000100: 1a13 eebd 0857 1b3d c84f ec3d c2e7 0d3e
00000110: a63f 1c3d 2a61 133e 992e 8fbd 4476 0dbd
00000120: 8984 bcbd f290 263d 7897 38bd d62b 60bc
00000130: 7cbf 663d 9769 d7bd 0e3c 803d f8be b13d
00000140: b09d 50bd b7ac b2bd f191 e73c 1e9e e1bb
00000150: a796 5fbc 4d80 953a 55ed e2bd 800b 15be
00000160: 74a8 9c3d 2042 9b3d 7a10 a53c f709 e13c
00000170: a080 dd3b e26f b93d a6f2 3cbd f866 fabc
00000180: 9411 353d 401d f13d 65d6 34bd 7e6c 963d
00000190: 9d6c 103e dcf9 1dbe eb45 823d 0b42 09be
000001a0: f1ca 333c a4b6 b63d 744b 15be f3f7 8b3d
000001b0: ad1e d4bc 1d44 1c3d 033d 1f3d 9c71 0b3e
000001c0: 08d6 1cbc 798e dcbd fc65 bf3d 40ff ae3c
000001d0: d737 ee3c a0f2 11bd d5e5 64bd 5bea bfbd
000001e0: 3481 ee3a 9cc7 32be e4b7 d73d c208 f43d
000001f0: a802 d63c d3d3 8abd 6886 30bd 13ca 153e
00000200: 780a b03d 2a3e 1bbe 2c4f dcbd 0951 fcbd
00000210: cf2a cdbd a580 22be e09d 163e 46e9 e2bd
00000220: 99a9 ce3d a003 e9bb 961d f7bd faf3 5c3c
00000230: 8782 cb3c 77c7 24be 2703 f73d a0d6 72bd
00000240: abc5 113e 0fa1 6b3d 71b7 b6bd ec08 1a3e
00000250: 8e6e 7dbd d1b8 833d dc08 823c 10ac cf3d
00000260: 0bea 453d c286 cebd 9306 d4bc bdca 063e
00000270: f040 b2bd eccf 053e 9e64 b83d c2fd b03d
00000280: 9303 e1bd 6b0f 4fbd a973 9a3d 0cd9 12be
00000290: 640d 7b3d 16f3 18be bcd9 adbd a238 853d
000002a0: 90ea fabd 7e65 00be cd0c 5b3d 4e59 1cbe
000002b0: b0dc 1ebe 75f5 b33d 3f6b c2bd 17d6 df3c
000002c0: 3147 34be e13b 57bd 5013 103d 0081 29be
000002d0: e616 1fbe a5a9 2bbd 1914 e03d 826a 78bd
000002e0: 3b16 a5bb 2067 083e d985 8a3d 886c a33c
000002f0: 0a47 debd 3e1b 9bbd da0a c3bc 203d ba3d
0.06564846 0.013414693 0.0018196553 -0.11105714 0.12336712 -0.008901112 0.09306479 0.15131086
0.10836037 0.14591159 0.0045858026 0.1603518 0.10420302 0.15020914 -0.17010245 0.09663323
0.017886296 0.022411158 -0.1709945 -0.03808958 0.112056896 -0.06975901 0.14497776 -0.10552605
-0.13511375 0.009407163 0.067952484 -0.046947796 0.10268344 -0.16481282 0.0070462194 0.17021869
-0.092076994 -0.017763536 -0.116769664 0.14036612 0.020410795 -0.011487186 0.09603263 -0.0013528757
0.03019966 -0.039508738 0.07280957 0.073501915 -0.0036482501 -0.086725585 -0.03374237 -0.06515804
0.15966515 0.122452736 -0.11698803 -0.026302109 -0.018493675 -0.033997245 -0.058877256 0.15201077
-0.09742476 0.065267645 -0.13127185 -0.08129889 0.083531834 0.17020133 -0.07969241 -0.023467358
-0.11624737 0.037924796 0.115386546 0.1385794 0.038146637 0.14392534 -0.0699131 -0.034536615
-0.092049666 0.040665574 -0.045066327 -0.013682326 0.056334957 -0.105181865 0.062614545 0.086790025
-0.050931633 -0.08724349 0.028267832 -0.006885304 -0.013646758 0.0011406034 -0.11080424 -0.14555168
0.076493174 0.07580972 0.020149458 0.027470572 0.006759718 0.09054543 -0.046129845 -0.030566677
0.044206217 0.11773157 -0.044149775 0.07344912 0.14103933 -0.15427345 0.06360992 -0.134041
0.010973678 0.08921555 -0.14579564 0.06834402 -0.025893534 0.038150895 0.038876545 0.13617557
-0.009572513 -0.10769362 0.09345624 0.021361947 0.02907936 -0.035631776 -0.055883247 -0.09370872
0.0018196465 -0.17458957 0.10533121 0.11915733 0.026124313 -0.067786835 -0.04309693 0.14627866
0.08595747 -0.15160432 -0.10757288 -0.12320144 -0.10017931 -0.15869386 0.14708662 -0.110796496
0.10090942 -0.007111028 -0.1206619 0.013485903 0.024842514 -0.16091715 0.12061148 -0.059286714
0.1423556 0.057526644 -0.089217074 0.15042466 -0.06187301 0.06431735 0.015873365 0.1014024
0.048318904 -0.10084297 -0.025882041 0.13163276 -0.08703792 0.13067597 0.09003566 0.086421505
-0.1098701 -0.050551813 0.07541592 -0.1434061 0.061292067 -0.1493648 -0.08488795 0.065049425
-0.122517705 -0.12538716 0.053479005 -0.15268442 -0.15513873 0.087870516 -0.09493112 0.027323766
-0.17605282 -0.05254734 0.035174668 -0.16553116 -0.15536079 -0.041909833 0.10941333 -0.06064845
-0.0050380505 0.13320589 0.06763811 0.019949213 -0.108533934 -0.075735554 -0.023808885 0.0909369

fc3.bias f4 [3]
00000000: f608 fbbd c10d c3bd cb61 ca3d
-0.122575685 -0.09524108 0.09881934
